…
{"obj": {"type": "LogStrings", "path": ["monitoring", "stderr"], "values": [{"value": "", "step": null, "ts": 1638527983.661746}]}, "version": 112}
{"obj": {"type": "LogStrings", "path": ["monitoring", "stderr"], "values": [{"value": "Warning: string series 'monitoring/stdout' value was longer than 1000 characters and was truncated. This warning is printed only once per series.\n", "step": null, "ts": 1638527983.661746}]}, "version": 113}
{"obj": {"type": "LogStrings", "path": ["monitoring", "stdout"], "values": [{"value": "ConvAutoencoder(\n  (flatten): Flatten(start_dim=1, end_dim=-1)\n  (linear1): Linear(in_features=1728, out_features=2500, bias=True)\n  (linear2): Linear(in_features=2500, out_features=1600, bias=True)\n  (linear3): Linear(in_features=1600, out_features=1200, bias=True)\n  (unflatten): Unflatten(dim=1, unflattened_size=(12, 10, 10))\n  (conv1): Conv2d(3, 16, kernel_size=(3, 3), stride=(1, 1), padding=(1, 1))\n  (conv2): Conv2d(16, 32, kernel_size=(3, 3), stride=(1, 1), padding=(1, 1))\n  (conv3): Conv2d(32, 44, kernel_size=(3, 3), stride=(1, 1), padding=(1, 1))\n  (conv4): Conv2d(44, 32, kernel_size=(3, 3), stride=(1, 1), padding=(1, 1))\n  (conv5): Conv2d(32, 16, kernel_size=(3, 3), stride=(1, 1), padding=(1, 1))\n  (conv6): Conv2d(16, 12, kernel_size=(3, 3), stride=(1, 1), padding=(1, 1))\n  (pool): MaxPool2d(kernel_size=2, stride=2, padding=0, dilation=1, ceil_mode=False)\n  (t_conv1): ConvTranspose2d(12, 16, kernel_size=(3, 3), stride=(3, 3), padding=(2, 2))\n  (t_conv2): ConvTranspose2d(16, 32,", "step": null, "ts": 1638527983.661746}]}, "version": 114}
{"obj": {"type": "LogStrings", "path": ["monitoring", "stderr"], "values": [{"value": "Warning: string series 'monitoring/stdout' value was longer than 1000 characters and was truncated. This warning is printed only once per series.\n", "step": null, "ts": 1638527983.661746}]}, "version": 115}
{"obj": {"type": "LogStrings", "path": ["monitoring", "stdout"], "values": [{"value": "\n", "step": null, "ts": 1638527983.661746}]}, "version": 116}
…
{"obj": {"type": "LogFloats", "path": ["monitoring", "cpu"], "values": [{"value": 2.5, "step": null, "ts": 1638528206.5170062}]}, "version": 208}
{"obj": {"type": "LogFloats", "path": ["monitoring", "memory"], "values": [{"value": 9.525779724121094, "step": null, "ts": 1638528206.5170062}]}, "version": 209}
{"obj": {"type": "LogFloats", "path": ["monitoring", "gpu_memory"], "values": [{"value": 1.0395317077636719, "step": null, "ts": 1638528206.5170062}]}, "version": 210}
{"obj": {"type": "LogStrings", "path": ["monitoring", "stdout"], "values": [{"value": "ConvAutoencoder(\n  (flatten): Flatten(start_dim=1, end_dim=-1)\n  (linear1): Linear(in_features=1728, out_features=2500, bias=True)\n  (linear2): Linear(in_features=2500, out_features=1600, bias=True)\n  (linear3): Linear(in_features=1600, out_features=1200, bias=True)\n  (unflatten): Unflatten(dim=1, unflattened_size=(12, 10, 10))\n  (conv1): Conv2d(3, 16, kernel_size=(3, 3), stride=(1, 1), padding=(1, 1))\n  (conv2): Conv2d(16, 32, kernel_size=(3, 3), stride=(1, 1), padding=(1, 1))\n  (conv3): Conv2d(32, 44, kernel_size=(3, 3), stride=(1, 1), padding=(1, 1))\n  (conv4): Conv2d(44, 32, kernel_size=(3, 3), stride=(1, 1), padding=(1, 1))\n  (conv5): Conv2d(32, 16, kernel_size=(3, 3), stride=(1, 1), padding=(1, 1))\n  (conv6): Conv2d(16, 12, kernel_size=(3, 3), stride=(1, 1), padding=(1, 1))\n  (pool): MaxPool2d(kernel_size=2, stride=2, padding=0, dilation=1, ceil_mode=False)\n  (t_conv1): ConvTranspose2d(12, 16, kernel_size=(3, 3), stride=(3, 3), padding=(2, 2))\n  (t_conv2): ConvTranspose2d(16, 32,", "step": null, "ts": 1638528213.3282592}]}, "version": 211}
{"obj": {"type": "LogStrings", "path": ["monitoring", "stdout"], "values": [{"value": "\n", "step": null, "ts": 1638528213.3282592}]}, "version": 212}
{"obj": {"type": "LogStrings", "path": ["monitoring", "stdout"], "values": [{"value": "cuda", "step": null, "ts": 1638528213.3282592}]}, "version": 213}
{"obj": {"type": "LogStrings", "path": ["monitoring", "stdout"], "values": [{"value": "\n", "step": null, "ts": 1638528213.3282592}]}, "version": 214}
…
{"obj": {"type": "LogFloats", "path": ["monitoring", "cpu"], "values": [{"value": 7.3, "step": null, "ts": 1638528306.6275632}]}, "version": 254}
{"obj": {"type": "LogFloats", "path": ["monitoring", "memory"], "values": [{"value": 9.533309936523438, "step": null, "ts": 1638528306.6275632}]}, "version": 255}
{"obj": {"type": "LogFloats", "path": ["monitoring", "gpu_memory"], "values": [{"value": 1.0395317077636719, "step": null, "ts": 1638528306.6275632}]}, "version": 256}
{"obj": {"type": "LogStrings", "path": ["monitoring", "stdout"], "values": [{"value": "ConvAutoencoder(\n  (flatten): Flatten(start_dim=1, end_dim=-1)\n  (linear1): Linear(in_features=1728, out_features=2500, bias=True)\n  (linear2): Linear(in_features=2500, out_features=1600, bias=True)\n  (linear3): Linear(in_features=1600, out_features=1200, bias=True)\n  (unflatten): Unflatten(dim=1, unflattened_size=(12, 10, 10))\n  (conv1): Conv2d(3, 16, kernel_size=(3, 3), stride=(1, 1), padding=(1, 1))\n  (conv2): Conv2d(16, 32, kernel_size=(3, 3), stride=(1, 1), padding=(1, 1))\n  (conv3): Conv2d(32, 44, kernel_size=(3, 3), stride=(1, 1), padding=(1, 1))\n  (conv4): Conv2d(44, 32, kernel_size=(3, 3), stride=(1, 1), padding=(1, 1))\n  (conv5): Conv2d(32, 16, kernel_size=(3, 3), stride=(1, 1), padding=(1, 1))\n  (conv6): Conv2d(16, 12, kernel_size=(3, 3), stride=(1, 1), padding=(1, 1))\n  (pool): MaxPool2d(kernel_size=2, stride=2, padding=0, dilation=1, ceil_mode=False)\n  (t_conv1): ConvTranspose2d(12, 16, kernel_size=(3, 3), stride=(3, 3), padding=(2, 2))\n  (t_conv2): ConvTranspose2d(16, 32,", "step": null, "ts": 1638528310.0760593}]}, "version": 257}
{"obj": {"type": "LogStrings", "path": ["monitoring", "stdout"], "values": [{"value": "\n", "step": null, "ts": 1638528310.0760593}]}, "version": 258}
{"obj": {"type": "LogStrings", "path": ["monitoring", "stdout"], "values": [{"value": "cuda", "step": null, "ts": 1638528310.0760593}]}, "version": 259}
{"obj": {"type": "LogStrings", "path": ["monitoring", "stdout"], "values": [{"value": "\n", "step": null, "ts": 1638528310.0760593}]}, "version": 260}
…
