…
{"obj": {"type": "LogStrings", "path": ["monitoring", "stderr"], "values": [{"value": "", "step": null, "ts": 1638526741.2269778}]}, "version": 30}
{"obj": {"type": "LogStrings", "path": ["monitoring", "stderr"], "values": [{"value": "Warning: string series 'monitoring/stdout' value was longer than 1000 characters and was truncated. This warning is printed only once per series.\n", "step": null, "ts": 1638526741.2269778}]}, "version": 31}
{"obj": {"type": "LogStrings", "path": ["monitoring", "stdout"], "values": [{"value": "ConvAutoencoder(\n  (flatten): Flatten(start_dim=1, end_dim=-1)\n  (linear1): Linear(in_features=1728, out_features=2500, bias=True)\n  (linear2): Linear(in_features=2500, out_features=1600, bias=True)\n  (linear3): Linear(in_features=1600, out_features=1200, bias=True)\n  (unflatten): Unflatten(dim=1, unflattened_size=(12, 10, 10))\n  (conv1): Conv2d(3, 16, kernel_size=(3, 3), stride=(1, 1), padding=(1, 1))\n  (conv2): Conv2d(16, 32, kernel_size=(3, 3), stride=(1, 1), padding=(1, 1))\n  (conv3): Conv2d(32, 44, kernel_size=(3, 3), stride=(1, 1), padding=(1, 1))\n  (conv4): Conv2d(44, 32, kernel_size=(3, 3), stride=(1, 1), padding=(1, 1))\n  (conv5): Conv2d(32, 16, kernel_size=(3, 3), stride=(1, 1), padding=(1, 1))\n  (conv6): Conv2d(16, 12, kernel_size=(3, 3), stride=(1, 1), padding=(1, 1))\n  (pool): MaxPool2d(kernel_size=2, stride=2, padding=0, dilation=1, ceil_mode=False)\n  (t_conv1): ConvTranspose2d(12, 16, kernel_size=(3, 3), stride=(3, 3), padding=(2, 2))\n  (t_conv2): ConvTranspose2d(16, 32,", "step": null, "ts": 1638526741.2269778}]}, "version": 32}
{"obj": {"type": "LogStrings", "path": ["monitoring", "stdout"], "values": [{"value": "\n", "step": null, "ts": 1638526741.2269778}]}, "version": 33}
{"obj": {"type": "LogStrings", "path": ["monitoring", "stdout"], "values": [{"value": "cuda", "step": null, "ts": 1638526741.7845933}]}, "version": 34}
{"obj": {"type": "LogStrings", "path": ["monitoring", "stdout"], "values": [{"value": "\n", "step": null, "ts": 1638526741.7845933}]}, "version": 35}
…
{"obj": {"type": "LogFloats", "path": ["monitoring", "cpu"], "values": [{"value": 8.3, "step": null, "ts": 1638527973.6272714}]}, "version": 505}
{"obj": {"type": "LogFloats", "path": ["monitoring", "memory"], "values": [{"value": 9.46591567993164, "step": null, "ts": 1638527973.6272714}]}, "version": 506}
{"obj": {"type": "LogFloats", "path": ["monitoring", "gpu_memory"], "values": [{"value": 0.8793754577636719, "step": null, "ts": 1638527973.6272714}]}, "version": 507}
{"obj": {"type": "LogStrings", "path": ["monitoring", "stdout"], "values": [{"value": "ConvAutoencoder(\n  (flatten): Flatten(start_dim=1, end_dim=-1)\n  (linear1): Linear(in_features=1728, out_features=2500, bias=True)\n  (linear2): Linear(in_features=2500, out_features=1600, bias=True)\n  (linear3): Linear(in_features=1600, out_features=1200, bias=True)\n  (unflatten): Unflatten(dim=1, unflattened_size=(12, 10, 10))\n  (conv1): Conv2d(3, 16, kernel_size=(3, 3), stride=(1, 1), padding=(1, 1))\n  (conv2): Conv2d(16, 32, kernel_size=(3, 3), stride=(1, 1), padding=(1, 1))\n  (conv3): Conv2d(32, 44, kernel_size=(3, 3), stride=(1, 1), padding=(1, 1))\n  (conv4): Conv2d(44, 32, kernel_size=(3, 3), stride=(1, 1), padding=(1, 1))\n  (conv5): Conv2d(32, 16, kernel_size=(3, 3), stride=(1, 1), padding=(1, 1))\n  (conv6): Conv2d(16, 12, kernel_size=(3, 3), stride=(1, 1), padding=(1, 1))\n  (pool): MaxPool2d(kernel_size=2, stride=2, padding=0, dilation=1, ceil_mode=False)\n  (t_conv1): ConvTranspose2d(12, 16, kernel_size=(3, 3), stride=(3, 3), padding=(2, 2))\n  (t_conv2): ConvTranspose2d(16, 32,", "step": null, "ts": 1638527983.661746}]}, "version": 508}
{"obj": {"type": "LogStrings", "path": ["monitoring", "stderr"], "values": [{"value": "", "step": null, "ts": 1638527983.661746}]}, "version": 509}
{"obj": {"type": "LogStrings", "path": ["monitoring", "stderr"], "values": [{"value": "Warning: string series 'monitoring/stdout' value was longer than 1000 characters and was truncated. This warning is printed only once per series.\n", "step": null, "ts": 1638527983.661746}]}, "version": 510}
…
{"obj": {"type": "LogFloats", "path": ["monitoring", "cpu"], "values": [{"value": 2.4, "step": null, "ts": 1638528204.5902297}]}, "version": 604}
{"obj": {"type": "LogFloats", "path": ["monitoring", "memory"], "values": [{"value": 9.538482666015625, "step": null, "ts": 1638528204.5902297}]}, "version": 605}
{"obj": {"type": "LogFloats", "path": ["monitoring", "gpu_memory"], "values": [{"value": 1.0395317077636719, "step": null, "ts": 1638528204.5902297}]}, "version": 606}
{"obj": {"type": "LogStrings", "path": ["monitoring", "stdout"], "values": [{"value": "ConvAutoencoder(\n  (flatten): Flatten(start_dim=1, end_dim=-1)\n  (linear1): Linear(in_features=1728, out_features=2500, bias=True)\n  (linear2): Linear(in_features=2500, out_features=1600, bias=True)\n  (linear3): Linear(in_features=1600, out_features=1200, bias=True)\n  (unflatten): Unflatten(dim=1, unflattened_size=(12, 10, 10))\n  (conv1): Conv2d(3, 16, kernel_size=(3, 3), stride=(1, 1), padding=(1, 1))\n  (conv2): Conv2d(16, 32, kernel_size=(3, 3), stride=(1, 1), padding=(1, 1))\n  (conv3): Conv2d(32, 44, kernel_size=(3, 3), stride=(1, 1), padding=(1, 1))\n  (conv4): Conv2d(44, 32, kernel_size=(3, 3), stride=(1, 1), padding=(1, 1))\n  (conv5): Conv2d(32, 16, kernel_size=(3, 3), stride=(1, 1), padding=(1, 1))\n  (conv6): Conv2d(16, 12, kernel_size=(3, 3), stride=(1, 1), padding=(1, 1))\n  (pool): MaxPool2d(kernel_size=2, stride=2, padding=0, dilation=1, ceil_mode=False)\n  (t_conv1): ConvTranspose2d(12, 16, kernel_size=(3, 3), stride=(3, 3), padding=(2, 2))\n  (t_conv2): ConvTranspose2d(16, 32,", "step": null, "ts": 1638528213.3282592}]}, "version": 607}
{"obj": {"type": "LogStrings", "path": ["monitoring", "stdout"], "values": [{"value": "\n", "step": null, "ts": 1638528213.3282592}]}, "version": 608}
{"obj": {"type": "LogStrings", "path": ["monitoring", "stdout"], "values": [{"value": "cuda", "step": null, "ts": 1638528213.3282592}]}, "version": 609}
{"obj": {"type": "LogStrings", "path": ["monitoring", "stdout"], "values": [{"value": "\n", "step": null, "ts": 1638528213.3282592}]}, "version": 610}
…
{"obj": {"type": "LogFloats", "path": ["monitoring", "cpu"], "values": [{"value": 4.7, "step": null, "ts": 1638528305.1932719}]}, "version": 649}
{"obj": {"type": "LogFloats", "path": ["monitoring", "memory"], "values": [{"value": 9.531379699707031, "step": null, "ts": 1638528305.1932719}]}, "version": 650}
{"obj": {"type": "LogFloats", "path": ["monitoring", "gpu_memory"], "values": [{"value": 1.0395317077636719, "step": null, "ts": 1638528305.1932719}]}, "version": 651}
{"obj": {"type": "LogStrings", "path": ["monitoring", "stdout"], "values": [{"value": "ConvAutoencoder(\n  (flatten): Flatten(start_dim=1, end_dim=-1)\n  (linear1): Linear(in_features=1728, out_features=2500, bias=True)\n  (linear2): Linear(in_features=2500, out_features=1600, bias=True)\n  (linear3): Linear(in_features=1600, out_features=1200, bias=True)\n  (unflatten): Unflatten(dim=1, unflattened_size=(12, 10, 10))\n  (conv1): Conv2d(3, 16, kernel_size=(3, 3), stride=(1, 1), padding=(1, 1))\n  (conv2): Conv2d(16, 32, kernel_size=(3, 3), stride=(1, 1), padding=(1, 1))\n  (conv3): Conv2d(32, 44, kernel_size=(3, 3), stride=(1, 1), padding=(1, 1))\n  (conv4): Conv2d(44, 32, kernel_size=(3, 3), stride=(1, 1), padding=(1, 1))\n  (conv5): Conv2d(32, 16, kernel_size=(3, 3), stride=(1, 1), padding=(1, 1))\n  (conv6): Conv2d(16, 12, kernel_size=(3, 3), stride=(1, 1), padding=(1, 1))\n  (pool): MaxPool2d(kernel_size=2, stride=2, padding=0, dilation=1, ceil_mode=False)\n  (t_conv1): ConvTranspose2d(12, 16, kernel_size=(3, 3), stride=(3, 3), padding=(2, 2))\n  (t_conv2): ConvTranspose2d(16, 32,", "step": null, "ts": 1638528310.0760593}]}, "version": 652}
{"obj": {"type": "LogStrings", "path": ["monitoring", "stdout"], "values": [{"value": "\n", "step": null, "ts": 1638528310.0760593}]}, "version": 653}
{"obj": {"type": "LogStrings", "path": ["monitoring", "stdout"], "values": [{"value": "cuda", "step": null, "ts": 1638528310.0760593}]}, "version": 654}
{"obj": {"type": "LogStrings", "path": ["monitoring", "stdout"], "values": [{"value": "\n", "step": null, "ts": 1638528310.0760593}]}, "version": 655}
…
