…
{"obj": {"type": "LogStrings", "path": ["monitoring", "stderr"], "values": [{"value": "Warning: string series 'monitoring/stdout' value was longer than 1000 characters and was truncated. This warning is printed only once per series.\n", "step": null, "ts": 1638527983.661746}]}, "version": 25}
{"obj": {"type": "LogStrings", "path": ["monitoring", "stderr"], "values": [{"value": "Warning: string series 'monitoring/stdout' value was longer than 1000 characters and was truncated. This warning is printed only once per series.\n", "step": null, "ts": 1638527983.661746}]}, "version": 26}
{"obj": {"type": "LogStrings", "path": ["monitoring", "stdout"], "values": [{"value": "ConvAutoencoder(\n  (flatten): Flatten(start_dim=1, end_dim=-1)\n  (linear1): Linear(in_features=1728, out_features=2500, bias=True)\n  (linear2): Linear(in_features=2500, out_features=1600, bias=True)\n  (linear3): Linear(in_features=1600, out_features=1200, bias=True)\n  (unflatten): Unflatten(dim=1, unflattened_size=(12, 10, 10))\n  (conv1): Conv2d(3, 16, kernel_size=(3, 3), stride=(1, 1), padding=(1, 1))\n  (conv2): Conv2d(16, 32, kernel_size=(3, 3), stride=(1, 1), padding=(1, 1))\n  (conv3): Conv2d(32, 44, kernel_size=(3, 3), stride=(1, 1), padding=(1, 1))\n  (conv4): Conv2d(44, 32, kernel_size=(3, 3), stride=(1, 1), padding=(1, 1))\n  (conv5): Conv2d(32, 16, kernel_size=(3, 3), stride=(1, 1), padding=(1, 1))\n  (conv6): Conv2d(16, 12, kernel_size=(3, 3), stride=(1, 1), padding=(1, 1))\n  (pool): MaxPool2d(kernel_size=2, stride=2, padding=0, dilation=1, ceil_mode=False)\n  (t_conv1): ConvTranspose2d(12, 16, kernel_size=(3, 3), stride=(3, 3), padding=(2, 2))\n  (t_conv2): ConvTranspose2d(16, 32,", "step": null, "ts": 1638527983.661746}]}, "version": 27}
{"obj": {"type": "LogStrings", "path": ["monitoring", "stdout"], "values": [{"value": "\n", "step": null, "ts": 1638527983.661746}]}, "version": 28}
{"obj": {"type": "LogStrings", "path": ["monitoring", "stdout"], "values": [{"value": "cuda", "step": null, "ts": 1638527983.661746}]}, "version": 29}
{"obj": {"type": "LogStrings", "path": ["monitoring", "stdout"], "values": [{"value": "\n", "step": null, "ts": 1638527983.661746}]}, "version": 30}
…
{"obj": {"type": "LogFloats", "path": ["monitoring", "cpu"], "values": [{"value": 10.4, "step": null, "ts": 1638528207.239234}]}, "version": 130}
{"obj": {"type": "LogFloats", "path": ["monitoring", "memory"], "values": [{"value": 9.534866333007812, "step": null, "ts": 1638528207.239234}]}, "version": 131}
{"obj": {"type": "LogFloats", "path": ["monitoring", "gpu_memory"], "values": [{"value": 1.0395317077636719, "step": null, "ts": 1638528207.239234}]}, "version": 132}
{"obj": {"type": "LogStrings", "path": ["monitoring", "stdout"], "values": [{"value": "ConvAutoencoder(\n  (flatten): Flatten(start_dim=1, end_dim=-1)\n  (linear1): Linear(in_features=1728, out_features=2500, bias=True)\n  (linear2): Linear(in_features=2500, out_features=1600, bias=True)\n  (linear3): Linear(in_features=1600, out_features=1200, bias=True)\n  (unflatten): Unflatten(dim=1, unflattened_size=(12, 10, 10))\n  (conv1): Conv2d(3, 16, kernel_size=(3, 3), stride=(1, 1), padding=(1, 1))\n  (conv2): Conv2d(16, 32, kernel_size=(3, 3), stride=(1, 1), padding=(1, 1))\n  (conv3): Conv2d(32, 44, kernel_size=(3, 3), stride=(1, 1), padding=(1, 1))\n  (conv4): Conv2d(44, 32, kernel_size=(3, 3), stride=(1, 1), padding=(1, 1))\n  (conv5): Conv2d(32, 16, kernel_size=(3, 3), stride=(1, 1), padding=(1, 1))\n  (conv6): Conv2d(16, 12, kernel_size=(3, 3), stride=(1, 1), padding=(1, 1))\n  (pool): MaxPool2d(kernel_size=2, stride=2, padding=0, dilation=1, ceil_mode=False)\n  (t_conv1): ConvTranspose2d(12, 16, kernel_size=(3, 3), stride=(3, 3), padding=(2, 2))\n  (t_conv2): ConvTranspose2d(16, 32,", "step": null, "ts": 1638528213.3282592}]}, "version": 133}
{"obj": {"type": "LogStrings", "path": ["monitoring", "stdout"], "values": [{"value": "\n", "step": null, "ts": 1638528213.3282592}]}, "version": 134}
{"obj": {"type": "LogStrings", "path": ["monitoring", "stdout"], "values": [{"value": "cuda", "step": null, "ts": 1638528213.3282592}]}, "version": 135}
{"obj": {"type": "LogStrings", "path": ["monitoring", "stdout"], "values": [{"value": "\n", "step": null, "ts": 1638528213.3282592}]}, "version": 136}
…
{"obj": {"type": "LogFloats", "path": ["monitoring", "cpu"], "values": [{"value": 2.5, "step": null, "ts": 1638528307.3289526}]}, "version": 181}
{"obj": {"type": "LogFloats", "path": ["monitoring", "memory"], "values": [{"value": 9.531360626220703, "step": null, "ts": 1638528307.3289526}]}, "version": 182}
{"obj": {"type": "LogFloats", "path": ["monitoring", "gpu_memory"], "values": [{"value": 1.0395317077636719, "step": null, "ts": 1638528307.3289526}]}, "version": 183}
{"obj": {"type": "LogStrings", "path": ["monitoring", "stdout"], "values": [{"value": "ConvAutoencoder(\n  (flatten): Flatten(start_dim=1, end_dim=-1)\n  (linear1): Linear(in_features=1728, out_features=2500, bias=True)\n  (linear2): Linear(in_features=2500, out_features=1600, bias=True)\n  (linear3): Linear(in_features=1600, out_features=1200, bias=True)\n  (unflatten): Unflatten(dim=1, unflattened_size=(12, 10, 10))\n  (conv1): Conv2d(3, 16, kernel_size=(3, 3), stride=(1, 1), padding=(1, 1))\n  (conv2): Conv2d(16, 32, kernel_size=(3, 3), stride=(1, 1), padding=(1, 1))\n  (conv3): Conv2d(32, 44, kernel_size=(3, 3), stride=(1, 1), padding=(1, 1))\n  (conv4): Conv2d(44, 32, kernel_size=(3, 3), stride=(1, 1), padding=(1, 1))\n  (conv5): Conv2d(32, 16, kernel_size=(3, 3), stride=(1, 1), padding=(1, 1))\n  (conv6): Conv2d(16, 12, kernel_size=(3, 3), stride=(1, 1), padding=(1, 1))\n  (pool): MaxPool2d(kernel_size=2, stride=2, padding=0, dilation=1, ceil_mode=False)\n  (t_conv1): ConvTranspose2d(12, 16, kernel_size=(3, 3), stride=(3, 3), padding=(2, 2))\n  (t_conv2): ConvTranspose2d(16, 32,", "step": null, "ts": 1638528310.0760593}]}, "version": 184}
{"obj": {"type": "LogStrings", "path": ["monitoring", "stdout"], "values": [{"value": "\n", "step": null, "ts": 1638528310.0760593}]}, "version": 185}
{"obj": {"type": "LogStrings", "path": ["monitoring", "stdout"], "values": [{"value": "cuda", "step": null, "ts": 1638528310.0760593}]}, "version": 186}
{"obj": {"type": "LogStrings", "path": ["monitoring", "stdout"], "values": [{"value": "\n", "step": null, "ts": 1638528310.0760593}]}, "version": 187}
…
