…
{"obj": {"type": "LogFloats", "path": ["monitoring", "cpu"], "values": [{"value": 8.3, "step": null, "ts": 1638796158.0295734}]}, "version": 24}
{"obj": {"type": "LogFloats", "path": ["monitoring", "memory"], "values": [{"value": 11.471969604492188, "step": null, "ts": 1638796158.0295734}]}, "version": 25}
{"obj": {"type": "LogFloats", "path": ["monitoring", "gpu_memory"], "values": [{"value": 2.639141082763672, "step": null, "ts": 1638796158.0295734}]}, "version": 26}
{"obj": {"type": "AssignString", "path": ["test"], "value": "ConvAutoencoder(\n  (flatten): Flatten(start_dim=1, end_dim=-1)\n  (linear1): Linear(in_features=4608, out_features=5000, bias=True)\n  (linear2): Linear(in_features=5000, out_features=4050, bias=True)\n  (unflatten): Unflatten(dim=1, unflattened_size=(18, 15, 15))\n  (conv1): Conv2d(3, 8, kernel_size=(3, 3), stride=(1, 1), padding=(1, 1))\n  (conv11): Conv2d(8, 16, kernel_size=(3, 3), stride=(1, 1), padding=(1, 1))\n  (conv2): Conv2d(16, 32, kernel_size=(5, 5), stride=(1, 1), padding=(2, 2))\n  (conv3): Conv2d(32, 50, kernel_size=(7, 7), stride=(1, 1), padding=(3, 3))\n  (conv4): Conv2d(50, 60, kernel_size=(5, 5), stride=(1, 1), padding=(2, 2))\n  (conv5): Conv2d(60, 40, kernel_size=(3, 3), stride=(1, 1), padding=(1, 1))\n  (conv6): Conv2d(40, 32, kernel_size=(3, 3), stride=(1, 1), padding=(1, 1))\n  (pool): MaxPool2d(kernel_size=2, stride=2, padding=0, dilation=1, ceil_mode=False)\n  (t_conv1): ConvTranspose2d(18, 12, kernel_size=(3, 3), stride=(1, 1), padding=(2, 2))\n  (t_conv2): ConvTranspose2d(12, 8, kernel_size=(2, 2), stride=(2, 2), padding=(1, 1), output_padding=(1, 1))\n  (t_conv3): ConvTranspose2d(8, 3, kernel_size=(2, 2), stride=(2, 2))\n)"}, "version": 27}
{"obj": {"type": "LogFloats", "path": ["monitoring", "cpu"], "values": [{"value": 9.5, "step": null, "ts": 1638796168.051548}]}, "version": 28}
{"obj": {"type": "LogFloats", "path": ["monitoring", "memory"], "values": [{"value": 11.54355239868164, "step": null, "ts": 1638796168.051548}]}, "version": 29}
{"obj": {"type": "LogFloats", "path": ["monitoring", "gpu_memory"], "values": [{"value": 2.639141082763672, "step": null, "ts": 1638796168.051548}]}, "version": 30}
…
