…
{"obj": {"type": "LogStrings", "path": ["monitoring", "stderr"], "values": [{"value": "", "step": null, "ts": 1638703328.9654343}]}, "version": 421}
{"obj": {"type": "LogStrings", "path": ["monitoring", "stderr"], "values": [{"value": "Warning: string series 'monitoring/stdout' value was longer than 1000 characters and was truncated. This warning is printed only once per series.\n", "step": null, "ts": 1638703328.9673936}]}, "version": 422}
{"obj": {"type": "LogStrings", "path": ["monitoring", "stdout"], "values": [{"value": "ConvAutoencoder(\n  (flatten): Flatten(start_dim=1, end_dim=-1)\n  (linear1): Linear(in_features=1728, out_features=2500, bias=True)\n  (linear2): Linear(in_features=2500, out_features=1600, bias=True)\n  (linear3): Linear(in_features=1600, out_features=1200, bias=True)\n  (unflatten): Unflatten(dim=1, unflattened_size=(12, 10, 10))\n  (conv1): Conv2d(3, 16, kernel_size=(3, 3), stride=(1, 1), padding=(1, 1))\n  (conv2): Conv2d(16, 32, kernel_size=(3, 3), stride=(1, 1), padding=(1, 1))\n  (conv3): Conv2d(32, 44, kernel_size=(3, 3), stride=(1, 1), padding=(1, 1))\n  (conv4): Conv2d(44, 32, kernel_size=(3, 3), stride=(1, 1), padding=(1, 1))\n  (conv5): Conv2d(32, 16, kernel_size=(3, 3), stride=(1, 1), padding=(1, 1))\n  (conv6): Conv2d(16, 12, kernel_size=(3, 3), stride=(1, 1), padding=(1, 1))\n  (pool): MaxPool2d(kernel_size=2, stride=2, padding=0, dilation=1, ceil_mode=False)\n  (t_conv1): ConvTranspose2d(12, 16, kernel_size=(3, 3), stride=(3, 3), padding=(2, 2))\n  (t_conv2): ConvTranspose2d(16, 32,", "step": null, "ts": 1638703328.9654343}]}, "version": 423}
{"obj": {"type": "LogStrings", "path": ["monitoring", "stdout"], "values": [{"value": "\n", "step": null, "ts": 1638703328.9683912}]}, "version": 424}
{"obj": {"type": "LogFloats", "path": ["monitoring", "cpu"], "values": [{"value": 7.7, "step": null, "ts": 1638703330.2095985}]}, "version": 425}
{"obj": {"type": "LogFloats", "path": ["monitoring", "memory"], "values": [{"value": 10.375106811523438, "step": null, "ts": 1638703330.2095985}]}, "version": 426}
{"obj": {"type": "LogFloats", "path": ["monitoring", "gpu_memory"], "values": [{"value": 2.6441650390625, "step": null, "ts": 1638703330.2095985}]}, "version": 427}
{"obj": {"type": "LogStrings", "path": ["monitoring", "stdout"], "values": [{"value": "ConvAutoencoder(\n  (flatten): Flatten(start_dim=1, end_dim=-1)\n  (linear1): Linear(in_features=1728, out_features=2500, bias=True)\n  (linear2): Linear(in_features=2500, out_features=1600, bias=True)\n  (linear3): Linear(in_features=1600, out_features=1200, bias=True)\n  (unflatten): Unflatten(dim=1, unflattened_size=(12, 10, 10))\n  (conv1): Conv2d(3, 16, kernel_size=(3, 3), stride=(1, 1), padding=(1, 1))\n  (conv2): Conv2d(16, 32, kernel_size=(3, 3), stride=(1, 1), padding=(1, 1))\n  (conv3): Conv2d(32, 44, kernel_size=(3, 3), stride=(1, 1), padding=(1, 1))\n  (conv4): Conv2d(44, 32, kernel_size=(3, 3), stride=(1, 1), padding=(1, 1))\n  (conv5): Conv2d(32, 16, kernel_size=(3, 3), stride=(1, 1), padding=(1, 1))\n  (conv6): Conv2d(16, 12, kernel_size=(3, 3), stride=(1, 1), padding=(1, 1))\n  (pool): MaxPool2d(kernel_size=2, stride=2, padding=0, dilation=1, ceil_mode=False)\n  (t_conv1): ConvTranspose2d(12, 16, kernel_size=(3, 3), stride=(3, 3), padding=(2, 2))\n  (t_conv2): ConvTranspose2d(16, 32,", "step": null, "ts": 1638703337.068535}]}, "version": 428}
{"obj": {"type": "LogStrings", "path": ["monitoring", "stdout"], "values": [{"value": "\n", "step": null, "ts": 1638703337.068535}]}, "version": 429}
{"obj": {"type": "LogFloats", "path": ["monitoring", "cpu"], "values": [{"value": 7.1, "step": null, "ts": 1638703340.2372105}]}, "version": 430}
{"obj": {"type": "LogFloats", "path": ["monitoring", "memory"], "values": [{"value": 10.351104736328125, "step": null, "ts": 1638703340.2372105}]}, "version": 431}
{"obj": {"type": "LogFloats", "path": ["monitoring", "gpu_memory"], "values": [{"value": 2.6441650390625, "step": null, "ts": 1638703340.2372105}]}, "version": 432}
{"obj": {"type": "LogStrings", "path": ["monitoring", "stdout"], "values": [{"value": "ConvAutoencoder(\n  (flatten): Flatten(start_dim=1, end_dim=-1)\n  (linear1): Linear(in_features=1728, out_features=2500, bias=True)\n  (linear2): Linear(in_features=2500, out_features=1600, bias=True)\n  (linear3): Linear(in_features=1600, out_features=1200, bias=True)\n  (unflatten): Unflatten(dim=1, unflattened_size=(12, 10, 10))\n  (conv1): Conv2d(3, 16, kernel_size=(3, 3), stride=(1, 1), padding=(1, 1))\n  (conv2): Conv2d(16, 32, kernel_size=(3, 3), stride=(1, 1), padding=(1, 1))\n  (conv3): Conv2d(32, 44, kernel_size=(3, 3), stride=(1, 1), padding=(1, 1))\n  (conv4): Conv2d(44, 32, kernel_size=(3, 3), stride=(1, 1), padding=(1, 1))\n  (conv5): Conv2d(32, 16, kernel_size=(3, 3), stride=(1, 1), padding=(1, 1))\n  (conv6): Conv2d(16, 12, kernel_size=(3, 3), stride=(1, 1), padding=(1, 1))\n  (pool): MaxPool2d(kernel_size=2, stride=2, padding=0, dilation=1, ceil_mode=False)\n  (t_conv1): ConvTranspose2d(12, 16, kernel_size=(3, 3), stride=(3, 3), padding=(2, 2))\n  (t_conv2): ConvTranspose2d(16, 32,", "step": null, "ts": 1638703340.4012167}]}, "version": 433}
{"obj": {"type": "LogStrings", "path": ["monitoring", "stdout"], "values": [{"value": "\n", "step": null, "ts": 1638703340.4032128}]}, "version": 434}
{"obj": {"type": "LogFloats", "path": ["monitoring", "cpu"], "values": [{"value": 6.0, "step": null, "ts": 1638703350.2660007}]}, "version": 435}
{"obj": {"type": "LogFloats", "path": ["monitoring", "memory"], "values": [{"value": 10.344673156738281, "step": null, "ts": 1638703350.2660007}]}, "version": 436}
{"obj": {"type": "LogFloats", "path": ["monitoring", "gpu_memory"], "values": [{"value": 2.6441650390625, "step": null, "ts": 1638703350.2660007}]}, "version": 437}
{"obj": {"type": "LogStrings", "path": ["monitoring", "stdout"], "values": [{"value": "ConvAutoencoder(\n  (flatten): Flatten(start_dim=1, end_dim=-1)\n  (linear1): Linear(in_features=1728, out_features=2500, bias=True)\n  (linear2): Linear(in_features=2500, out_features=1600, bias=True)\n  (linear3): Linear(in_features=1600, out_features=1200, bias=True)\n  (unflatten): Unflatten(dim=1, unflattened_size=(12, 10, 10))\n  (conv1): Conv2d(3, 16, kernel_size=(3, 3), stride=(1, 1), padding=(1, 1))\n  (conv2): Conv2d(16, 32, kernel_size=(3, 3), stride=(1, 1), padding=(1, 1))\n  (conv3): Conv2d(32, 44, kernel_size=(3, 3), stride=(1, 1), padding=(1, 1))\n  (conv4): Conv2d(44, 32, kernel_size=(3, 3), stride=(1, 1), padding=(1, 1))\n  (conv5): Conv2d(32, 16, kernel_size=(3, 3), stride=(1, 1), padding=(1, 1))\n  (conv6): Conv2d(16, 12, kernel_size=(3, 3), stride=(1, 1), padding=(1, 1))\n  (pool): MaxPool2d(kernel_size=2, stride=2, padding=0, dilation=1, ceil_mode=False)\n  (t_conv1): ConvTranspose2d(12, 16, kernel_size=(3, 3), stride=(3, 3), padding=(2, 2))\n  (t_conv2): ConvTranspose2d(16, 32,", "step": null, "ts": 1638703354.704883}]}, "version": 438}
{"obj": {"type": "LogStrings", "path": ["monitoring", "stdout"], "values": [{"value": "\n", "step": null, "ts": 1638703354.7068522}]}, "version": 439}
{"obj": {"type": "LogFloats", "path": ["monitoring", "cpu"], "values": [{"value": 13.1, "step": null, "ts": 1638703360.5977979}]}, "version": 440}
{"obj": {"type": "LogFloats", "path": ["monitoring", "memory"], "values": [{"value": 10.397895812988281, "step": null, "ts": 1638703360.5977979}]}, "version": 441}
…
{"obj": {"type": "LogFloats", "path": ["monitoring", "cpu"], "values": [{"value": 8.6, "step": null, "ts": 1638703492.859506}]}, "version": 481}
{"obj": {"type": "LogFloats", "path": ["monitoring", "memory"], "values": [{"value": 10.485557556152344, "step": null, "ts": 1638703492.859506}]}, "version": 482}
{"obj": {"type": "LogFloats", "path": ["monitoring", "gpu_memory"], "values": [{"value": 2.6441650390625, "step": null, "ts": 1638703492.859506}]}, "version": 483}
{"obj": {"type": "LogStrings", "path": ["monitoring", "stdout"], "values": [{"value": "<bound method ConvAutoencoder.forward of ConvAutoencoder(\n  (flatten): Flatten(start_dim=1, end_dim=-1)\n  (linear1): Linear(in_features=1728, out_features=2500, bias=True)\n  (linear2): Linear(in_features=2500, out_features=1600, bias=True)\n  (linear3): Linear(in_features=1600, out_features=1200, bias=True)\n  (unflatten): Unflatten(dim=1, unflattened_size=(12, 10, 10))\n  (conv1): Conv2d(3, 16, kernel_size=(3, 3), stride=(1, 1), padding=(1, 1))\n  (conv2): Conv2d(16, 32, kernel_size=(3, 3), stride=(1, 1), padding=(1, 1))\n  (conv3): Conv2d(32, 44, kernel_size=(3, 3), stride=(1, 1), padding=(1, 1))\n  (conv4): Conv2d(44, 32, kernel_size=(3, 3), stride=(1, 1), padding=(1, 1))\n  (conv5): Conv2d(32, 16, kernel_size=(3, 3), stride=(1, 1), padding=(1, 1))\n  (conv6): Conv2d(16, 12, kernel_size=(3, 3), stride=(1, 1), padding=(1, 1))\n  (pool): MaxPool2d(kernel_size=2, stride=2, padding=0, dilation=1, ceil_mode=False)\n  (t_conv1): ConvTranspose2d(12, 16, kernel_size=(3, 3), stride=(3, 3), padding=(2,", "step": null, "ts": 1638703497.1857786}]}, "version": 484}
{"obj": {"type": "LogStrings", "path": ["monitoring", "stdout"], "values": [{"value": "\n", "step": null, "ts": 1638703497.1867478}]}, "version": 485}
{"obj": {"type": "LogFloats", "path": ["monitoring", "cpu"], "values": [{"value": 6.2, "step": null, "ts": 1638703502.8783314}]}, "version": 486}
{"obj": {"type": "LogFloats", "path": ["monitoring", "memory"], "values": [{"value": 10.483650207519531, "step": null, "ts": 1638703502.8783314}]}, "version": 487}
{"obj": {"type": "LogFloats", "path": ["monitoring", "gpu_memory"], "values": [{"value": 2.6441650390625, "step": null, "ts": 1638703502.8783314}]}, "version": 488}
{"obj": {"type": "LogStrings", "path": ["monitoring", "stdout"], "values": [{"value": "<bound method ConvAutoencoder.forward of ConvAutoencoder(\n  (flatten): Flatten(start_dim=1, end_dim=-1)\n  (linear1): Linear(in_features=1728, out_features=2500, bias=True)\n  (linear2): Linear(in_features=2500, out_features=1600, bias=True)\n  (linear3): Linear(in_features=1600, out_features=1200, bias=True)\n  (unflatten): Unflatten(dim=1, unflattened_size=(12, 10, 10))\n  (conv1): Conv2d(3, 16, kernel_size=(3, 3), stride=(1, 1), padding=(1, 1))\n  (conv2): Conv2d(16, 32, kernel_size=(3, 3), stride=(1, 1), padding=(1, 1))\n  (conv3): Conv2d(32, 44, kernel_size=(3, 3), stride=(1, 1), padding=(1, 1))\n  (conv4): Conv2d(44, 32, kernel_size=(3, 3), stride=(1, 1), padding=(1, 1))\n  (conv5): Conv2d(32, 16, kernel_size=(3, 3), stride=(1, 1), padding=(1, 1))\n  (conv6): Conv2d(16, 12, kernel_size=(3, 3), stride=(1, 1), padding=(1, 1))\n  (pool): MaxPool2d(kernel_size=2, stride=2, padding=0, dilation=1, ceil_mode=False)\n  (t_conv1): ConvTranspose2d(12, 16, kernel_size=(3, 3), stride=(3, 3), padding=(2,", "step": null, "ts": 1638703512.5833256}]}, "version": 489}
{"obj": {"type": "LogStrings", "path": ["monitoring", "stdout"], "values": [{"value": "\n", "step": null, "ts": 1638703512.5853221}]}, "version": 490}
{"obj": {"type": "LogFloats", "path": ["monitoring", "cpu"], "values": [{"value": 6.7, "step": null, "ts": 1638703513.1830285}]}, "version": 491}
…
{"obj": {"type": "LogFloats", "path": ["monitoring", "cpu"], "values": [{"value": 8.3, "step": null, "ts": 1638703533.5100422}]}, "version": 497}
{"obj": {"type": "LogFloats", "path": ["monitoring", "memory"], "values": [{"value": 10.484901428222656, "step": null, "ts": 1638703533.5100422}]}, "version": 498}
{"obj": {"type": "LogFloats", "path": ["monitoring", "gpu_memory"], "values": [{"value": 2.6441650390625, "step": null, "ts": 1638703533.5100422}]}, "version": 499}
{"obj": {"type": "LogStrings", "path": ["monitoring", "stdout"], "values": [{"value": "<bound method ConvAutoencoder.decode of ConvAutoencoder(\n  (flatten): Flatten(start_dim=1, end_dim=-1)\n  (linear1): Linear(in_features=1728, out_features=2500, bias=True)\n  (linear2): Linear(in_features=2500, out_features=1600, bias=True)\n  (linear3): Linear(in_features=1600, out_features=1200, bias=True)\n  (unflatten): Unflatten(dim=1, unflattened_size=(12, 10, 10))\n  (conv1): Conv2d(3, 16, kernel_size=(3, 3), stride=(1, 1), padding=(1, 1))\n  (conv2): Conv2d(16, 32, kernel_size=(3, 3), stride=(1, 1), padding=(1, 1))\n  (conv3): Conv2d(32, 44, kernel_size=(3, 3), stride=(1, 1), padding=(1, 1))\n  (conv4): Conv2d(44, 32, kernel_size=(3, 3), stride=(1, 1), padding=(1, 1))\n  (conv5): Conv2d(32, 16, kernel_size=(3, 3), stride=(1, 1), padding=(1, 1))\n  (conv6): Conv2d(16, 12, kernel_size=(3, 3), stride=(1, 1), padding=(1, 1))\n  (pool): MaxPool2d(kernel_size=2, stride=2, padding=0, dilation=1, ceil_mode=False)\n  (t_conv1): ConvTranspose2d(12, 16, kernel_size=(3, 3), stride=(3, 3), padding=(2, ", "step": null, "ts": 1638703533.627256}]}, "version": 500}
{"obj": {"type": "LogStrings", "path": ["monitoring", "stdout"], "values": [{"value": "\n", "step": null, "ts": 1638703533.6282532}]}, "version": 501}
{"obj": {"type": "LogStrings", "path": ["monitoring", "stdout"], "values": [{"value": "<bound method ConvAutoencoder.decode of ConvAutoencoder(\n  (flatten): Flatten(start_dim=1, end_dim=-1)\n  (linear1): Linear(in_features=1728, out_features=2500, bias=True)\n  (linear2): Linear(in_features=2500, out_features=1600, bias=True)\n  (linear3): Linear(in_features=1600, out_features=1200, bias=True)\n  (unflatten): Unflatten(dim=1, unflattened_size=(12, 10, 10))\n  (conv1): Conv2d(3, 16, kernel_size=(3, 3), stride=(1, 1), padding=(1, 1))\n  (conv2): Conv2d(16, 32, kernel_size=(3, 3), stride=(1, 1), padding=(1, 1))\n  (conv3): Conv2d(32, 44, kernel_size=(3, 3), stride=(1, 1), padding=(1, 1))\n  (conv4): Conv2d(44, 32, kernel_size=(3, 3), stride=(1, 1), padding=(1, 1))\n  (conv5): Conv2d(32, 16, kernel_size=(3, 3), stride=(1, 1), padding=(1, 1))\n  (conv6): Conv2d(16, 12, kernel_size=(3, 3), stride=(1, 1), padding=(1, 1))\n  (pool): MaxPool2d(kernel_size=2, stride=2, padding=0, dilation=1, ceil_mode=False)\n  (t_conv1): ConvTranspose2d(12, 16, kernel_size=(3, 3), stride=(3, 3), padding=(2, ", "step": null, "ts": 1638703534.707676}]}, "version": 502}
{"obj": {"type": "LogStrings", "path": ["monitoring", "stdout"], "values": [{"value": "\n", "step": null, "ts": 1638703534.7086716}]}, "version": 503}
{"obj": {"type": "LogFloats", "path": ["monitoring", "cpu"], "values": [{"value": 6.4, "step": null, "ts": 1638703543.5288384}]}, "version": 504}
…
{"obj": {"type": "LogFloats", "path": ["monitoring", "cpu"], "values": [{"value": 7.4, "step": null, "ts": 1638703553.8403869}]}, "version": 507}
{"obj": {"type": "LogFloats", "path": ["monitoring", "memory"], "values": [{"value": 10.484729766845703, "step": null, "ts": 1638703553.8403869}]}, "version": 508}
{"obj": {"type": "LogFloats", "path": ["monitoring", "gpu_memory"], "values": [{"value": 2.6441650390625, "step": null, "ts": 1638703553.8403869}]}, "version": 509}
{"obj": {"type": "LogStrings", "path": ["monitoring", "stdout"], "values": [{"value": "<bound method ConvAutoencoder.decode of ConvAutoencoder(\n  (flatten): Flatten(start_dim=1, end_dim=-1)\n  (linear1): Linear(in_features=1728, out_features=2500, bias=True)\n  (linear2): Linear(in_features=2500, out_features=1600, bias=True)\n  (linear3): Linear(in_features=1600, out_features=1200, bias=True)\n  (unflatten): Unflatten(dim=1, unflattened_size=(12, 10, 10))\n  (conv1): Conv2d(3, 16, kernel_size=(3, 3), stride=(1, 1), padding=(1, 1))\n  (conv2): Conv2d(16, 32, kernel_size=(3, 3), stride=(1, 1), padding=(1, 1))\n  (conv3): Conv2d(32, 44, kernel_size=(3, 3), stride=(1, 1), padding=(1, 1))\n  (conv4): Conv2d(44, 32, kernel_size=(3, 3), stride=(1, 1), padding=(1, 1))\n  (conv5): Conv2d(32, 16, kernel_size=(3, 3), stride=(1, 1), padding=(1, 1))\n  (conv6): Conv2d(16, 12, kernel_size=(3, 3), stride=(1, 1), padding=(1, 1))\n  (pool): MaxPool2d(kernel_size=2, stride=2, padding=0, dilation=1, ceil_mode=False)\n  (t_conv1): ConvTranspose2d(12, 16, kernel_size=(3, 3), stride=(3, 3), padding=(2, ", "step": null, "ts": 1638703560.9381242}]}, "version": 510}
{"obj": {"type": "LogStrings", "path": ["monitoring", "stdout"], "values": [{"value": "\n", "step": null, "ts": 1638703560.9403553}]}, "version": 511}
{"obj": {"type": "LogFloats", "path": ["monitoring", "cpu"], "values": [{"value": 6.9, "step": null, "ts": 1638703563.86721}]}, "version": 512}
…
{"obj": {"type": "LogFloats", "path": ["monitoring", "cpu"], "values": [{"value": 8.7, "step": null, "ts": 1638703624.8994875}]}, "version": 530}
{"obj": {"type": "LogFloats", "path": ["monitoring", "memory"], "values": [{"value": 10.515411376953125, "step": null, "ts": 1638703624.8994875}]}, "version": 531}
{"obj": {"type": "LogFloats", "path": ["monitoring", "gpu_memory"], "values": [{"value": 2.6441650390625, "step": null, "ts": 1638703624.8994875}]}, "version": 532}
{"obj": {"type": "LogStrings", "path": ["monitoring", "stdout"], "values": [{"value": "<bound method ConvAutoencoder.decode of ConvAutoencoder(\n  (flatten): Flatten(start_dim=1, end_dim=-1)\n  (linear1): Linear(in_features=1728, out_features=2500, bias=True)\n  (linear2): Linear(in_features=2500, out_features=1600, bias=True)\n  (linear3): Linear(in_features=1600, out_features=1200, bias=True)\n  (unflatten): Unflatten(dim=1, unflattened_size=(12, 10, 10))\n  (conv1): Conv2d(3, 16, kernel_size=(3, 3), stride=(1, 1), padding=(1, 1))\n  (conv2): Conv2d(16, 32, kernel_size=(3, 3), stride=(1, 1), padding=(1, 1))\n  (conv3): Conv2d(32, 44, kernel_size=(3, 3), stride=(1, 1), padding=(1, 1))\n  (conv4): Conv2d(44, 32, kernel_size=(3, 3), stride=(1, 1), padding=(1, 1))\n  (conv5): Conv2d(32, 16, kernel_size=(3, 3), stride=(1, 1), padding=(1, 1))\n  (conv6): Conv2d(16, 12, kernel_size=(3, 3), stride=(1, 1), padding=(1, 1))\n  (pool): MaxPool2d(kernel_size=2, stride=2, padding=0, dilation=1, ceil_mode=False)\n  (t_conv1): ConvTranspose2d(12, 16, kernel_size=(3, 3), stride=(3, 3), padding=(2, ", "step": null, "ts": 1638703632.1351647}]}, "version": 533}
{"obj": {"type": "LogStrings", "path": ["monitoring", "stdout"], "values": [{"value": "\n", "step": null, "ts": 1638703632.1361618}]}, "version": 534}
{"obj": {"type": "LogFloats", "path": ["monitoring", "cpu"], "values": [{"value": 7.9, "step": null, "ts": 1638703635.2291281}]}, "version": 535}
…
{"obj": {"type": "LogFloats", "path": ["monitoring", "cpu"], "values": [{"value": 9.1, "step": null, "ts": 1638703898.3400314}]}, "version": 613}
{"obj": {"type": "LogFloats", "path": ["monitoring", "memory"], "values": [{"value": 10.825874328613281, "step": null, "ts": 1638703898.3400314}]}, "version": 614}
{"obj": {"type": "LogFloats", "path": ["monitoring", "gpu_memory"], "values": [{"value": 2.6441650390625, "step": null, "ts": 1638703898.3400314}]}, "version": 615}
{"obj": {"type": "LogStrings", "path": ["monitoring", "stdout"], "values": [{"value": "VGG(\n  (features): Sequential(\n    (0): Conv2d(3, 64, kernel_size=(3, 3), stride=(1, 1), padding=(1, 1))\n    (1): ReLU(inplace=True)\n    (2): Conv2d(64, 64, kernel_size=(3, 3), stride=(1, 1), padding=(1, 1))\n    (3): ReLU(inplace=True)\n    (4): MaxPool2d(kernel_size=2, stride=2, padding=0, dilation=1, ceil_mode=False)\n    (5): Conv2d(64, 128, kernel_size=(3, 3), stride=(1, 1), padding=(1, 1))\n    (6): ReLU(inplace=True)\n    (7): Conv2d(128, 128, kernel_size=(3, 3), stride=(1, 1), padding=(1, 1))\n    (8): ReLU(inplace=True)\n    (9): MaxPool2d(kernel_size=2, stride=2, padding=0, dilation=1, ceil_mode=False)\n    (10): Conv2d(128, 256, kernel_size=(3, 3), stride=(1, 1), padding=(1, 1))\n    (11): ReLU(inplace=True)\n    (12): Conv2d(256, 256, kernel_size=(3, 3), stride=(1, 1), padding=(1, 1))\n    (13): ReLU(inplace=True)\n    (14): Conv2d(256, 256, kernel_size=(3, 3), stride=(1, 1), padding=(1, 1))\n    (15): ReLU(inplace=True)\n    (16): MaxPool2d(kernel_size=2, stride=2, padding=0, dilation=1", "step": null, "ts": 1638703899.4891374}]}, "version": 616}
{"obj": {"type": "LogStrings", "path": ["monitoring", "stdout"], "values": [{"value": "\n", "step": null, "ts": 1638703899.4891374}]}, "version": 617}
{"obj": {"type": "LogFloats", "path": ["monitoring", "cpu"], "values": [{"value": 7.8, "step": null, "ts": 1638703908.641509}]}, "version": 618}
…
{"obj": {"type": "LogFloats", "path": ["monitoring", "cpu"], "values": [{"value": 8.0, "step": null, "ts": 1638703928.9865997}]}, "version": 624}
{"obj": {"type": "LogFloats", "path": ["monitoring", "memory"], "values": [{"value": 10.416919708251953, "step": null, "ts": 1638703928.9865997}]}, "version": 625}
{"obj": {"type": "LogFloats", "path": ["monitoring", "gpu_memory"], "values": [{"value": 2.6441650390625, "step": null, "ts": 1638703928.9865997}]}, "version": 626}
{"obj": {"type": "LogStrings", "path": ["monitoring", "stdout"], "values": [{"value": "ConvAutoencoder(\n  (flatten): Flatten(start_dim=1, end_dim=-1)\n  (linear1): Linear(in_features=1728, out_features=2500, bias=True)\n  (linear2): Linear(in_features=2500, out_features=1600, bias=True)\n  (linear3): Linear(in_features=1600, out_features=1200, bias=True)\n  (unflatten): Unflatten(dim=1, unflattened_size=(12, 10, 10))\n  (conv1): Conv2d(3, 16, kernel_size=(3, 3), stride=(1, 1), padding=(1, 1))\n  (conv2): Conv2d(16, 32, kernel_size=(3, 3), stride=(1, 1), padding=(1, 1))\n  (conv3): Conv2d(32, 44, kernel_size=(3, 3), stride=(1, 1), padding=(1, 1))\n  (conv4): Conv2d(44, 32, kernel_size=(3, 3), stride=(1, 1), padding=(1, 1))\n  (conv5): Conv2d(32, 16, kernel_size=(3, 3), stride=(1, 1), padding=(1, 1))\n  (conv6): Conv2d(16, 12, kernel_size=(3, 3), stride=(1, 1), padding=(1, 1))\n  (pool): MaxPool2d(kernel_size=2, stride=2, padding=0, dilation=1, ceil_mode=False)\n  (t_conv1): ConvTranspose2d(12, 16, kernel_size=(3, 3), stride=(3, 3), padding=(2, 2))\n  (t_conv2): ConvTranspose2d(16, 32,", "step": null, "ts": 1638703930.1298704}]}, "version": 627}
{"obj": {"type": "LogStrings", "path": ["monitoring", "stdout"], "values": [{"value": "\n", "step": null, "ts": 1638703930.1318648}]}, "version": 628}
{"obj": {"type": "LogFloats", "path": ["monitoring", "cpu"], "values": [{"value": 5.1, "step": null, "ts": 1638703939.0065088}]}, "version": 629}
{"obj": {"type": "LogFloats", "path": ["monitoring", "memory"], "values": [{"value": 10.417377471923828, "step": null, "ts": 1638703939.0065088}]}, "version": 630}
…
